…
[2025-12-30 15:33:00,112][deepke.relation_extraction.standard.tools.preprocess][INFO] - ===== end preprocess data =====
[2025-12-30 15:33:00,112][utils.ioUtils][INFO] - load data from C:\Users\19029\DeepKE\example\re\standard\data/out\train.pkl
[2025-12-30 15:33:00,122][utils.ioUtils][INFO] - load data from C:\Users\19029\DeepKE\example\re\standard\data/out\valid.pkl
[2025-12-30 15:33:00,132][utils.ioUtils][INFO] - load data from C:\Users\19029\DeepKE\example\re\standard\data/out\test.pkl
[2025-12-30 15:33:01,230][__main__][INFO] - 
 LM(
  (bert): BertModel(
    (embeddings): BertEmbeddings(
      (word_embeddings): Embedding(21128, 768, padding_idx=0)
      (position_embeddings): Embedding(512, 768)
      (token_type_embeddings): Embedding(2, 768)
      (LayerNorm): LayerNorm((768,), eps=1e-12, elementwise_affine=True)
      (dropout): Dropout(p=0.1, inplace=False)
    )
    (encoder): BertEncoder(
      (layer): ModuleList(
        (0): BertLayer(
          (attention): BertAttention(
            (self): BertSelfAttention(
              (query): Linear(in_features=768, out_features=768, bias=True)
              (key): Linear(in_features=768, out_features=768, bias=True)
              (value): Linear(in_features=768, out_features=768, bias=True)
              (dropout): Dropout(p=0.1, inplace=False)
            )
            (output): BertSelfOutput(
              (dense): Linear(in_features=768, out_features=768, bias=True)
              (LayerNorm): LayerNorm((768,), eps=1e-12, elementwise_affine=True)
              (dropout): Dropout(p=0.1, inplace=False)
            )
          )
          (intermediate): BertIntermediate(
            (dense): Linear(in_features=768, out_features=3072, bias=True)
            (intermediate_act_fn): GELUActivation()
          )
          (output): BertOutput(
            (dense): Linear(in_features=3072, out_features=768, bias=True)
            (LayerNorm): LayerNorm((768,), eps=1e-12, elementwise_affine=True)
            (dropout): Dropout(p=0.1, inplace=False)
          )
        )
      )
    )
    (pooler): BertPooler(
      (dense): Linear(in_features=768, out_features=768, bias=True)
      (activation): Tanh()
    )
  )
  (bilstm): RNN(
    (rnn): LSTM(768, 50, batch_first=True, dropout=0.3, bidirectional=True)
  )
  (fc): Linear(in_features=100, out_features=12, bias=True)
  (dropout): Dropout(p=0.3, inplace=False)
)
[2025-12-30 15:33:01,591][__main__][INFO] - ========== Start training ==========
[2025-12-30 15:33:30,654][deepke.relation_extraction.standard.tools.trainer][INFO] - Train Epoch 1: [320/471 (68%)]	Loss: 1.787901
[2025-12-30 15:33:30,659][deepke.relation_extraction.standard.tools.trainer][INFO] - Train Epoch 1: Acc: 27.81%	macro metrics: [p: 0.0866, r:0.1422, f1:0.0937]
…
